2022-06-20 16:50:28,631 INFO Initialized logging
2022-06-20 16:50:45,394 INFO cfar10(
  (conv_block1): Sequential(
    (0): Conv2d(3, 32, kernel_size=(3, 3), stride=(1, 1), padding=(1, 1))
    (1): ReLU()
    (2): Conv2d(32, 64, kernel_size=(3, 3), stride=(1, 1), padding=(1, 1))
    (3): ReLU()
    (4): BatchNorm2d(64, eps=1e-05, momentum=0.1, affine=True, track_running_stats=True)
    (5): MaxPool2d(kernel_size=2, stride=2, padding=0, dilation=1, ceil_mode=False)
    (6): Dropout(p=0.15, inplace=False)
  )
  (conv_block2): Sequential(
    (0): Conv2d(64, 128, kernel_size=(3, 3), stride=(1, 1), padding=(1, 1))
    (1): ReLU()
    (2): Conv2d(128, 512, kernel_size=(3, 3), stride=(1, 1), padding=(1, 1), dilation=(2, 2))
    (3): ReLU()
    (4): BatchNorm2d(512, eps=1e-05, momentum=0.1, affine=True, track_running_stats=True)
    (5): MaxPool2d(kernel_size=2, stride=2, padding=0, dilation=1, ceil_mode=False)
    (6): Dropout(p=0.15, inplace=False)
  )
  (DepthSepConv): depthwise_separable_conv(
    (depthwise): Conv2d(512, 512, kernel_size=(3, 3), stride=(1, 1), padding=(1, 1), groups=512)
    (pointwise): Conv2d(512, 128, kernel_size=(1, 1), stride=(1, 1))
  )
  (conv_block3): Sequential(
    (0): depthwise_separable_conv(
      (depthwise): Conv2d(512, 512, kernel_size=(3, 3), stride=(1, 1), padding=(1, 1), groups=512)
      (pointwise): Conv2d(512, 128, kernel_size=(1, 1), stride=(1, 1))
    )
    (1): ReLU()
    (2): Conv2d(128, 64, kernel_size=(3, 3), stride=(1, 1), padding=(1, 1))
    (3): ReLU()
    (4): BatchNorm2d(64, eps=1e-05, momentum=0.1, affine=True, track_running_stats=True)
    (5): MaxPool2d(kernel_size=2, stride=2, padding=0, dilation=1, ceil_mode=False)
    (6): Dropout(p=0.15, inplace=False)
  )
  (conv_block4): Sequential(
    (0): Conv2d(64, 10, kernel_size=(3, 3), stride=(1, 1), padding=(1, 1))
  )
  (gap): Sequential(
    (0): AvgPool2d(kernel_size=3, stride=3, padding=0)
  )
)
2022-06-20 16:50:45,395 INFO Number of parameters: 835210
2022-06-20 16:50:45,395 INFO Epoch 1
2022-06-20 16:51:07,510 INFO 
Test set: Average loss: 1.2278, Accuracy: 5507/10000 (55%)

2022-06-20 16:51:07,744 INFO Epoch 1 summary: {'epoch': 1, 'train_loss': tensor(1.3723, device='cuda:0', grad_fn=<NllLossBackward0>), 'train_acc': 44.422, 'valid_loss': 1.2278325258255005, 'valid_acc': 0.5507}
…
